…
34.5s 178 --------------------------------------------------------------------------------
35.1s 179 model input parameters 32 100 20 1 512 256 38 25 TPS ResNet BiLSTM Attn
35.1s 180 Skip Transformation.LocalizationNetwork.localization_fc2.weight as it is already initialized
35.1s 181 Skip Transformation.LocalizationNetwork.localization_fc2.bias as it is already initialized
35.7s 182 Model:
35.7s 183 DataParallel(
35.7s 184 (module): Model(
35.7s 185 (Transformation): TPS_SpatialTransformerNetwork(
35.7s 186 (LocalizationNetwork): LocalizationNetwork(
35.7s 187 (conv): Sequential(
35.7s 188 (0): Conv2d(1, 64, kernel_size=(3, 3), stride=(1, 1), padding=(1, 1), bias=False)
35.7s 189 (1): BatchNorm2d(64, eps=1e-05, momentum=0.1, affine=True, track_running_stats=True)
35.7s 190 (2): ReLU(inplace=True)
35.7s 191 (3): MaxPool2d(kernel_size=2, stride=2, padding=0, dilation=1, ceil_mode=False)
35.7s 192 (4): Conv2d(64, 128, kernel_size=(3, 3), stride=(1, 1), padding=(1, 1), bias=False)
35.7s 193 (5): BatchNorm2d(128, eps=1e-05, momentum=0.1, affine=True, track_running_stats=True)
35.7s 194 (6): ReLU(inplace=True)
35.7s 195 (7): MaxPool2d(kernel_size=2, stride=2, padding=0, dilation=1, ceil_mode=False)
35.7s 196 (8): Conv2d(128, 256, kernel_size=(3, 3), stride=(1, 1), padding=(1, 1), bias=False)
35.7s 197 (9): BatchNorm2d(256, eps=1e-05, momentum=0.1, affine=True, track_running_stats=True)
35.7s 198 (10): ReLU(inplace=True)
35.7s 199 (11): MaxPool2d(kernel_size=2, stride=2, padding=0, dilation=1, ceil_mode=False)
35.7s 200 (12): Conv2d(256, 512, kernel_size=(3, 3), stride=(1, 1), padding=(1, 1), bias=False)
35.7s 201 (13): BatchNorm2d(512, eps=1e-05, momentum=0.1, affine=True, track_running_stats=True)
35.7s 202 (14): ReLU(inplace=True)
35.7s 203 (15): AdaptiveAvgPool2d(output_size=1)
35.7s 204 )
35.7s 205 (localization_fc1): Sequential(
35.7s 206 (0): Linear(in_features=512, out_features=256, bias=True)
35.7s 207 (1): ReLU(inplace=True)
35.7s 208 )
35.7s 209 (localization_fc2): Linear(in_features=256, out_features=40, bias=True)
35.7s 210 )
35.7s 211 (GridGenerator): GridGenerator()
35.7s 212 )
35.7s 213 (FeatureExtraction): ResNet_FeatureExtractor(
35.7s 214 (ConvNet): ResNet(
35.7s 215 (conv0_1): Conv2d(1, 32, kernel_size=(3, 3), stride=(1, 1), padding=(1, 1), bias=False)
35.7s 216 (bn0_1): BatchNorm2d(32, eps=1e-05, momentum=0.1, affine=True, track_running_stats=True)
35.7s 217 (conv0_2): Conv2d(32, 64, kernel_size=(3, 3), stride=(1, 1), padding=(1, 1), bias=False)
35.7s 218 (bn0_2): BatchNorm2d(64, eps=1e-05, momentum=0.1, affine=True, track_running_stats=True)
35.7s 219 (relu): ReLU(inplace=True)
35.7s 220 (maxpool1): MaxPool2d(kernel_size=2, stride=2, padding=0, dilation=1, ceil_mode=False)
35.7s 221 (layer1): Sequential(
35.7s 222 (0): BasicBlock(
35.7s 223 (conv1): Conv2d(64, 128, kernel_size=(3, 3), stride=(1, 1), padding=(1, 1), bias=False)
35.7s 224 (bn1): BatchNorm2d(128, eps=1e-05, momentum=0.1, affine=True, track_running_stats=True)
35.7s 225 (conv2): Conv2d(128, 128, kernel_size=(3, 3), stride=(1, 1), padding=(1, 1), bias=False)
35.7s 226 (bn2): BatchNorm2d(128, eps=1e-05, momentum=0.1, affine=True, track_running_stats=True)
35.7s 227 (relu): ReLU(inplace=True)
35.7s 228 (downsample): Sequential(
35.7s 229 (0): Conv2d(64, 128, kernel_size=(1, 1), stride=(1, 1), bias=False)
35.7s 230 (1): BatchNorm2d(128, eps=1e-05, momentum=0.1, affine=True, track_running_stats=True)
35.7s 231 )
35.7s 232 )
35.7s 233 )
35.7s 234 (conv1): Conv2d(128, 128, kernel_size=(3, 3), stride=(1, 1), padding=(1, 1), bias=False)
35.7s 235 (bn1): BatchNorm2d(128, eps=1e-05, momentum=0.1, affine=True, track_running_stats=True)
35.7s 236 (maxpool2): MaxPool2d(kernel_size=2, stride=2, padding=0, dilation=1, ceil_mode=False)
35.7s 237 (layer2): Sequential(
35.7s 238 (0): BasicBlock(
35.7s 239 (conv1): Conv2d(128, 256, kernel_size=(3, 3), stride=(1, 1), padding=(1, 1), bias=False)
35.7s 240 (bn1): BatchNorm2d(256, eps=1e-05, momentum=0.1, affine=True, track_running_stats=True)
35.7s 241 (conv2): Conv2d(256, 256, kernel_size=(3, 3), stride=(1, 1), padding=(1, 1), bias=False)
35.7s 242 (bn2): BatchNorm2d(256, eps=1e-05, momentum=0.1, affine=True, track_running_stats=True)
35.7s 243 (relu): ReLU(inplace=True)
35.7s 244 (downsample): Sequential(
35.7s 245 (0): Conv2d(128, 256, kernel_size=(1, 1), stride=(1, 1), bias=False)
35.7s 246 (1): BatchNorm2d(256, eps=1e-05, momentum=0.1, affine=True, track_running_stats=True)
35.7s 247 )
35.7s 248 )
35.7s 249 (1): BasicBlock(
35.7s 250 (conv1): Conv2d(256, 256, kernel_size=(3, 3), stride=(1, 1), padding=(1, 1), bias=False)
35.7s 251 (bn1): BatchNorm2d(256, eps=1e-05, momentum=0.1, affine=True, track_running_stats=True)
35.7s 252 (conv2): Conv2d(256, 256, kernel_size=(3, 3), stride=(1, 1), padding=(1, 1), bias=False)
35.7s 253 (bn2): BatchNorm2d(256, eps=1e-05, momentum=0.1, affine=True, track_running_stats=True)
35.7s 254 (relu): ReLU(inplace=True)
35.7s 255 )
35.7s 256 )
35.7s 257 (conv2): Conv2d(256, 256, kernel_size=(3, 3), stride=(1, 1), padding=(1, 1), bias=False)
35.7s 258 (bn2): BatchNorm2d(256, eps=1e-05, momentum=0.1, affine=True, track_running_stats=True)
35.7s 259 (maxpool3): MaxPool2d(kernel_size=2, stride=(2, 1), padding=(0, 1), dilation=1, ceil_mode=False)
35.7s 260 (layer3): Sequential(
35.7s 261 (0): BasicBlock(
35.7s 262 (conv1): Conv2d(256, 512, kernel_size=(3, 3), stride=(1, 1), padding=(1, 1), bias=False)
35.7s 263 (bn1): BatchNorm2d(512, eps=1e-05, momentum=0.1, affine=True, track_running_stats=True)
35.7s 264 (conv2): Conv2d(512, 512, kernel_size=(3, 3), stride=(1, 1), padding=(1, 1), bias=False)
35.7s 265 (bn2): BatchNorm2d(512, eps=1e-05, momentum=0.1, affine=True, track_running_stats=True)
35.7s 266 (relu): ReLU(inplace=True)
35.7s 267 (downsample): Sequential(
35.7s 268 (0): Conv2d(256, 512, kernel_size=(1, 1), stride=(1, 1), bias=False)
35.7s 269 (1): BatchNorm2d(512, eps=1e-05, momentum=0.1, affine=True, track_running_stats=True)
35.7s 270 )
35.7s 271 )
35.7s 272 (1): BasicBlock(
35.7s 273 (conv1): Conv2d(512, 512, kernel_size=(3, 3), stride=(1, 1), padding=(1, 1), bias=False)
35.7s 274 (bn1): BatchNorm2d(512, eps=1e-05, momentum=0.1, affine=True, track_running_stats=True)
35.7s 275 (conv2): Conv2d(512, 512, kernel_size=(3, 3), stride=(1, 1), padding=(1, 1), bias=False)
35.7s 276 (bn2): BatchNorm2d(512, eps=1e-05, momentum=0.1, affine=True, track_running_stats=True)
35.7s 277 (relu): ReLU(inplace=True)
35.7s 278 )
35.7s 279 (2): BasicBlock(
35.7s 280 (conv1): Conv2d(512, 512, kernel_size=(3, 3), stride=(1, 1), padding=(1, 1), bias=False)
35.7s 281 (bn1): BatchNorm2d(512, eps=1e-05, momentum=0.1, affine=True, track_running_stats=True)
35.7s 282 (conv2): Conv2d(512, 512, kernel_size=(3, 3), stride=(1, 1), padding=(1, 1), bias=False)
35.7s 283 (bn2): BatchNorm2d(512, eps=1e-05, momentum=0.1, affine=True, track_running_stats=True)
35.7s 284 (relu): ReLU(inplace=True)
35.7s 285 )
35.7s 286 (3): BasicBlock(
35.7s 287 (conv1): Conv2d(512, 512, kernel_size=(3, 3), stride=(1, 1), padding=(1, 1), bias=False)
35.7s 288 (bn1): BatchNorm2d(512, eps=1e-05, momentum=0.1, affine=True, track_running_stats=True)
35.7s 289 (conv2): Conv2d(512, 512, kernel_size=(3, 3), stride=(1, 1), padding=(1, 1), bias=False)
35.7s 290 (bn2): BatchNorm2d(512, eps=1e-05, momentum=0.1, affine=True, track_running_stats=True)
35.7s 291 (relu): ReLU(inplace=True)
35.7s 292 )
35.7s 293 (4): BasicBlock(
35.7s 294 (conv1): Conv2d(512, 512, kernel_size=(3, 3), stride=(1, 1), padding=(1, 1), bias=False)
35.7s 295 (bn1): BatchNorm2d(512, eps=1e-05, momentum=0.1, affine=True, track_running_stats=True)
35.7s 296 (conv2): Conv2d(512, 512, kernel_size=(3, 3), stride=(1, 1), padding=(1, 1), bias=False)
35.7s 297 (bn2): BatchNorm2d(512, eps=1e-05, momentum=0.1, affine=True, track_running_stats=True)
35.7s 298 (relu): ReLU(inplace=True)
35.7s 299 )
35.7s 300 )
35.7s 301 (conv3): Conv2d(512, 512, kernel_size=(3, 3), stride=(1, 1), padding=(1, 1), bias=False)
35.7s 302 (bn3): BatchNorm2d(512, eps=1e-05, momentum=0.1, affine=True, track_running_stats=True)
35.7s 303 (layer4): Sequential(
35.7s 304 (0): BasicBlock(
35.7s 305 (conv1): Conv2d(512, 512, kernel_size=(3, 3), stride=(1, 1), padding=(1, 1), bias=False)
35.7s 306 (bn1): BatchNorm2d(512, eps=1e-05, momentum=0.1, affine=True, track_running_stats=True)
35.7s 307 (conv2): Conv2d(512, 512, kernel_size=(3, 3), stride=(1, 1), padding=(1, 1), bias=False)
35.7s 308 (bn2): BatchNorm2d(512, eps=1e-05, momentum=0.1, affine=True, track_running_stats=True)
35.7s 309 (relu): ReLU(inplace=True)
35.7s 310 )
35.7s 311 (1): BasicBlock(
35.7s 312 (conv1): Conv2d(512, 512, kernel_size=(3, 3), stride=(1, 1), padding=(1, 1), bias=False)
35.7s 313 (bn1): BatchNorm2d(512, eps=1e-05, momentum=0.1, affine=True, track_running_stats=True)
35.7s 314 (conv2): Conv2d(512, 512, kernel_size=(3, 3), stride=(1, 1), padding=(1, 1), bias=False)
35.7s 315 (bn2): BatchNorm2d(512, eps=1e-05, momentum=0.1, affine=True, track_running_stats=True)
35.7s 316 (relu): ReLU(inplace=True)
35.7s 317 )
35.7s 318 (2): BasicBlock(
35.7s 319 (conv1): Conv2d(512, 512, kernel_size=(3, 3), stride=(1, 1), padding=(1, 1), bias=False)
35.7s 320 (bn1): BatchNorm2d(512, eps=1e-05, momentum=0.1, affine=True, track_running_stats=True)
35.7s 321 (conv2): Conv2d(512, 512, kernel_size=(3, 3), stride=(1, 1), padding=(1, 1), bias=False)
35.7s 322 (bn2): BatchNorm2d(512, eps=1e-05, momentum=0.1, affine=True, track_running_stats=True)
35.7s 323 (relu): ReLU(inplace=True)
35.7s 324 )
35.7s 325 )
35.7s 326 (conv4_1): Conv2d(512, 512, kernel_size=(2, 2), stride=(2, 1), padding=(0, 1), bias=False)
35.7s 327 (bn4_1): BatchNorm2d(512, eps=1e-05, momentum=0.1, affine=True, track_running_stats=True)
35.7s 328 (conv4_2): Conv2d(512, 512, kernel_size=(2, 2), stride=(1, 1), bias=False)
35.7s 329 (bn4_2): BatchNorm2d(512, eps=1e-05, momentum=0.1, affine=True, track_running_stats=True)
35.7s 330 )
35.7s 331 )
35.7s 332 (AdaptiveAvgPool): AdaptiveAvgPool2d(output_size=(None, 1))
35.7s 333 (SequenceModeling): Sequential(
35.7s 334 (0): BidirectionalLSTM(
35.7s 335 (rnn): LSTM(512, 256, batch_first=True, bidirectional=True)
35.7s 336 (linear): Linear(in_features=512, out_features=256, bias=True)
35.7s 337 )
35.7s 338 (1): BidirectionalLSTM(
35.7s 339 (rnn): LSTM(256, 256, batch_first=True, bidirectional=True)
35.7s 340 (linear): Linear(in_features=512, out_features=256, bias=True)
35.7s 341 )
35.7s 342 )
35.7s 343 (Prediction): Attention(
35.7s 344 (attention_cell): AttentionCell(
35.7s 345 (i2h): Linear(in_features=256, out_features=256, bias=False)
35.7s 346 (h2h): Linear(in_features=256, out_features=256, bias=True)
35.7s 347 (score): Linear(in_features=256, out_features=1, bias=False)
35.7s 348 (rnn): LSTMCell(294, 256)
35.7s 349 )
35.7s 350 (generator): Linear(in_features=256, out_features=38, bias=True)
35.7s 351 )
35.7s 352 )
35.7s 353 )
35.7s 354 Trainable params num :  49555182
35.7s 355 Optimizer:
35.7s 356 Adadelta (
35.7s 357 Parameter Group 0
35.7s 358 capturable: False
35.7s 359 differentiable: False
35.7s 360 eps: 1e-08
35.7s 361 foreach: None
35.7s 362 lr: 1
35.7s 363 maximize: False
35.7s 364 rho: 0.95
35.7s 365 weight_decay: 0
35.7s 366 )
35.7s 367 ------------ Options -------------
…
