…
116.6s 242 --------------------------------------------------------------------------------
116.8s 243 model input parameters 32 50 20 1 16 256 38 25 TPS neural BiLSTM Attn
116.8s 244 Skip Transformation.LocalizationNetwork.localization_fc2.weight as it is already initialized
116.8s 245 Skip Transformation.LocalizationNetwork.localization_fc2.bias as it is already initialized
116.9s 246 Model:
116.9s 247 DataParallel(
116.9s 248 (module): Model(
116.9s 249 (Transformation): TPS_SpatialTransformerNetwork(
116.9s 250 (LocalizationNetwork): LocalizationNetwork(
116.9s 251 (conv): Sequential(
116.9s 252 (0): Conv2d(1, 64, kernel_size=(3, 3), stride=(1, 1), padding=(1, 1), bias=False)
116.9s 253 (1): BatchNorm2d(64, eps=1e-05, momentum=0.1, affine=True, track_running_stats=True)
116.9s 254 (2): ReLU(inplace=True)
116.9s 255 (3): MaxPool2d(kernel_size=2, stride=2, padding=0, dilation=1, ceil_mode=False)
116.9s 256 (4): Conv2d(64, 128, kernel_size=(3, 3), stride=(1, 1), padding=(1, 1), bias=False)
116.9s 257 (5): BatchNorm2d(128, eps=1e-05, momentum=0.1, affine=True, track_running_stats=True)
116.9s 258 (6): ReLU(inplace=True)
116.9s 259 (7): MaxPool2d(kernel_size=2, stride=2, padding=0, dilation=1, ceil_mode=False)
116.9s 260 (8): Conv2d(128, 256, kernel_size=(3, 3), stride=(1, 1), padding=(1, 1), bias=False)
116.9s 261 (9): BatchNorm2d(256, eps=1e-05, momentum=0.1, affine=True, track_running_stats=True)
116.9s 262 (10): ReLU(inplace=True)
116.9s 263 (11): MaxPool2d(kernel_size=2, stride=2, padding=0, dilation=1, ceil_mode=False)
116.9s 264 (12): Conv2d(256, 512, kernel_size=(3, 3), stride=(1, 1), padding=(1, 1), bias=False)
116.9s 265 (13): BatchNorm2d(512, eps=1e-05, momentum=0.1, affine=True, track_running_stats=True)
116.9s 266 (14): ReLU(inplace=True)
116.9s 267 (15): AdaptiveAvgPool2d(output_size=1)
116.9s 268 )
116.9s 269 (localization_fc1): Sequential(
116.9s 270 (0): Linear(in_features=512, out_features=256, bias=True)
116.9s 271 (1): ReLU(inplace=True)
116.9s 272 )
116.9s 273 (localization_fc2): Linear(in_features=256, out_features=40, bias=True)
116.9s 274 )
116.9s 275 (GridGenerator): GridGenerator()
116.9s 276 )
116.9s 277 (FeatureExtraction): ResNet_FeatureExtractor_With_NeuralODE(
116.9s 278 (feature_extractor): ResNet_FeatureExtractor_3layer(
116.9s 279 (relu): ReLU(inplace=True)
116.9s 280 (conv0_1): Conv2d(1, 8, kernel_size=(3, 3), stride=(1, 1), padding=(1, 1), bias=False)
116.9s 281 (bn0_1): BatchNorm2d(8, eps=1e-05, momentum=0.1, affine=True, track_running_stats=True)
116.9s 282 (conv0_2): Conv2d(8, 16, kernel_size=(3, 3), stride=(1, 1), padding=(1, 1), bias=False)
116.9s 283 (bn0_2): BatchNorm2d(16, eps=1e-05, momentum=0.1, affine=True, track_running_stats=True)
116.9s 284 (pool1): MaxPool2d(kernel_size=2, stride=2, padding=0, dilation=1, ceil_mode=False)
116.9s 285 (pool2): MaxPool2d(kernel_size=2, stride=2, padding=0, dilation=1, ceil_mode=False)
116.9s 286 (adaptive_pool): AdaptiveAvgPool2d(output_size=(8, 8))
116.9s 287 )
116.9s 288 (ode_func): ODEFunc(
116.9s 289 (fc1): Linear(in_features=16, out_features=32, bias=True)
116.9s 290 (fc2): Linear(in_features=32, out_features=16, bias=True)
116.9s 291 )
116.9s 292 (neural_ode): NeuralODE(
116.9s 293 (ode_func): ODEFunc(
116.9s 294 (fc1): Linear(in_features=16, out_features=32, bias=True)
116.9s 295 (fc2): Linear(in_features=32, out_features=16, bias=True)
116.9s 296 )
116.9s 297 )
116.9s 298 )
116.9s 299 (AdaptiveAvgPool): AdaptiveAvgPool2d(output_size=(None, 1))
116.9s 300 (SequenceModeling): Sequential(
116.9s 301 (0): BidirectionalLSTM(
116.9s 302 (rnn): LSTM(16, 256, batch_first=True, bidirectional=True)
116.9s 303 (linear): Linear(in_features=512, out_features=256, bias=True)
116.9s 304 )
116.9s 305 (1): BidirectionalLSTM(
116.9s 306 (rnn): LSTM(256, 256, batch_first=True, bidirectional=True)
116.9s 307 (linear): Linear(in_features=512, out_features=256, bias=True)
116.9s 308 )
116.9s 309 )
116.9s 310 (Prediction): Attention(
116.9s 311 (attention_cell): AttentionCell(
116.9s 312 (i2h): Linear(in_features=256, out_features=256, bias=False)
116.9s 313 (h2h): Linear(in_features=256, out_features=256, bias=True)
116.9s 314 (score): Linear(in_features=256, out_features=1, bias=False)
116.9s 315 (rnn): LSTMCell(294, 256)
116.9s 316 )
116.9s 317 (generator): Linear(in_features=256, out_features=38, bias=True)
116.9s 318 )
116.9s 319 )
116.9s 320 )
116.9s 321 Trainable params num :  4277814
116.9s 322 Optimizer:
116.9s 323 Adadelta (
116.9s 324 Parameter Group 0
116.9s 325 capturable: False
116.9s 326 differentiable: False
116.9s 327 eps: 1e-08
116.9s 328 foreach: None
116.9s 329 lr: 1
116.9s 330 maximize: False
116.9s 331 rho: 0.95
116.9s 332 weight_decay: 0
…
