…
108.1s 199 --------------------------------------------------------------------------------
108.3s 200 model input parameters 32 100 20 1 512 256 38 25 TPS RCNN BiLSTM Attn
108.3s 201 Skip Transformation.LocalizationNetwork.localization_fc2.weight as it is already initialized
108.3s 202 Skip Transformation.LocalizationNetwork.localization_fc2.bias as it is already initialized
108.6s 203 Model:
108.6s 204 DataParallel(
108.6s 205 (module): Model(
108.6s 206 (Transformation): TPS_SpatialTransformerNetwork(
108.6s 207 (LocalizationNetwork): LocalizationNetwork(
108.6s 208 (conv): Sequential(
108.6s 209 (0): Conv2d(1, 64, kernel_size=(3, 3), stride=(1, 1), padding=(1, 1), bias=False)
108.6s 210 (1): BatchNorm2d(64, eps=1e-05, momentum=0.1, affine=True, track_running_stats=True)
108.6s 211 (2): ReLU(inplace=True)
108.6s 212 (3): MaxPool2d(kernel_size=2, stride=2, padding=0, dilation=1, ceil_mode=False)
108.6s 213 (4): Conv2d(64, 128, kernel_size=(3, 3), stride=(1, 1), padding=(1, 1), bias=False)
108.6s 214 (5): BatchNorm2d(128, eps=1e-05, momentum=0.1, affine=True, track_running_stats=True)
108.6s 215 (6): ReLU(inplace=True)
108.6s 216 (7): MaxPool2d(kernel_size=2, stride=2, padding=0, dilation=1, ceil_mode=False)
108.6s 217 (8): Conv2d(128, 256, kernel_size=(3, 3), stride=(1, 1), padding=(1, 1), bias=False)
108.6s 218 (9): BatchNorm2d(256, eps=1e-05, momentum=0.1, affine=True, track_running_stats=True)
108.6s 219 (10): ReLU(inplace=True)
108.6s 220 (11): MaxPool2d(kernel_size=2, stride=2, padding=0, dilation=1, ceil_mode=False)
108.6s 221 (12): Conv2d(256, 512, kernel_size=(3, 3), stride=(1, 1), padding=(1, 1), bias=False)
108.6s 222 (13): BatchNorm2d(512, eps=1e-05, momentum=0.1, affine=True, track_running_stats=True)
108.6s 223 (14): ReLU(inplace=True)
108.6s 224 (15): AdaptiveAvgPool2d(output_size=1)
108.6s 225 )
108.6s 226 (localization_fc1): Sequential(
108.6s 227 (0): Linear(in_features=512, out_features=256, bias=True)
108.6s 228 (1): ReLU(inplace=True)
108.6s 229 )
108.6s 230 (localization_fc2): Linear(in_features=256, out_features=40, bias=True)
108.6s 231 )
108.6s 232 (GridGenerator): GridGenerator()
108.6s 233 )
108.6s 234 (FeatureExtraction): RCNN_FeatureExtractor(
108.6s 235 (ConvNet): Sequential(
108.6s 236 (0): Conv2d(1, 64, kernel_size=(3, 3), stride=(1, 1), padding=(1, 1))
108.6s 237 (1): ReLU(inplace=True)
108.6s 238 (2): MaxPool2d(kernel_size=2, stride=2, padding=0, dilation=1, ceil_mode=False)
108.6s 239 (3): GRCL(
108.6s 240 (wgf_u): Conv2d(64, 64, kernel_size=(1, 1), stride=(1, 1), bias=False)
108.6s 241 (wgr_x): Conv2d(64, 64, kernel_size=(1, 1), stride=(1, 1), bias=False)
108.6s 242 (wf_u): Conv2d(64, 64, kernel_size=(3, 3), stride=(1, 1), padding=(1, 1), bias=False)
108.6s 243 (wr_x): Conv2d(64, 64, kernel_size=(3, 3), stride=(1, 1), padding=(1, 1), bias=False)
108.6s 244 (BN_x_init): BatchNorm2d(64, eps=1e-05, momentum=0.1, affine=True, track_running_stats=True)
108.6s 245 (GRCL): Sequential(
108.6s 246 (0): GRCL_unit(
108.6s 247 (BN_gfu): BatchNorm2d(64, eps=1e-05, momentum=0.1, affine=True, track_running_stats=True)
108.6s 248 (BN_grx): BatchNorm2d(64, eps=1e-05, momentum=0.1, affine=True, track_running_stats=True)
108.6s 249 (BN_fu): BatchNorm2d(64, eps=1e-05, momentum=0.1, affine=True, track_running_stats=True)
108.6s 250 (BN_rx): BatchNorm2d(64, eps=1e-05, momentum=0.1, affine=True, track_running_stats=True)
108.6s 251 (BN_Gx): BatchNorm2d(64, eps=1e-05, momentum=0.1, affine=True, track_running_stats=True)
108.6s 252 )
108.6s 253 (1): GRCL_unit(
108.6s 254 (BN_gfu): BatchNorm2d(64, eps=1e-05, momentum=0.1, affine=True, track_running_stats=True)
108.6s 255 (BN_grx): BatchNorm2d(64, eps=1e-05, momentum=0.1, affine=True, track_running_stats=True)
108.6s 256 (BN_fu): BatchNorm2d(64, eps=1e-05, momentum=0.1, affine=True, track_running_stats=True)
108.6s 257 (BN_rx): BatchNorm2d(64, eps=1e-05, momentum=0.1, affine=True, track_running_stats=True)
108.6s 258 (BN_Gx): BatchNorm2d(64, eps=1e-05, momentum=0.1, affine=True, track_running_stats=True)
108.6s 259 )
108.6s 260 (2): GRCL_unit(
108.6s 261 (BN_gfu): BatchNorm2d(64, eps=1e-05, momentum=0.1, affine=True, track_running_stats=True)
108.6s 262 (BN_grx): BatchNorm2d(64, eps=1e-05, momentum=0.1, affine=True, track_running_stats=True)
108.6s 263 (BN_fu): BatchNorm2d(64, eps=1e-05, momentum=0.1, affine=True, track_running_stats=True)
108.6s 264 (BN_rx): BatchNorm2d(64, eps=1e-05, momentum=0.1, affine=True, track_running_stats=True)
108.6s 265 (BN_Gx): BatchNorm2d(64, eps=1e-05, momentum=0.1, affine=True, track_running_stats=True)
108.6s 266 )
108.6s 267 (3): GRCL_unit(
108.6s 268 (BN_gfu): BatchNorm2d(64, eps=1e-05, momentum=0.1, affine=True, track_running_stats=True)
108.6s 269 (BN_grx): BatchNorm2d(64, eps=1e-05, momentum=0.1, affine=True, track_running_stats=True)
108.6s 270 (BN_fu): BatchNorm2d(64, eps=1e-05, momentum=0.1, affine=True, track_running_stats=True)
108.6s 271 (BN_rx): BatchNorm2d(64, eps=1e-05, momentum=0.1, affine=True, track_running_stats=True)
108.6s 272 (BN_Gx): BatchNorm2d(64, eps=1e-05, momentum=0.1, affine=True, track_running_stats=True)
108.6s 273 )
108.6s 274 (4): GRCL_unit(
108.6s 275 (BN_gfu): BatchNorm2d(64, eps=1e-05, momentum=0.1, affine=True, track_running_stats=True)
108.6s 276 (BN_grx): BatchNorm2d(64, eps=1e-05, momentum=0.1, affine=True, track_running_stats=True)
108.6s 277 (BN_fu): BatchNorm2d(64, eps=1e-05, momentum=0.1, affine=True, track_running_stats=True)
108.6s 278 (BN_rx): BatchNorm2d(64, eps=1e-05, momentum=0.1, affine=True, track_running_stats=True)
108.6s 279 (BN_Gx): BatchNorm2d(64, eps=1e-05, momentum=0.1, affine=True, track_running_stats=True)
108.6s 280 )
108.6s 281 )
108.6s 282 )
108.6s 283 (4): MaxPool2d(kernel_size=2, stride=2, padding=0, dilation=1, ceil_mode=False)
108.6s 284 (5): GRCL(
108.6s 285 (wgf_u): Conv2d(64, 128, kernel_size=(1, 1), stride=(1, 1), bias=False)
108.6s 286 (wgr_x): Conv2d(128, 128, kernel_size=(1, 1), stride=(1, 1), bias=False)
108.6s 287 (wf_u): Conv2d(64, 128, kernel_size=(3, 3), stride=(1, 1), padding=(1, 1), bias=False)
108.6s 288 (wr_x): Conv2d(128, 128, kernel_size=(3, 3), stride=(1, 1), padding=(1, 1), bias=False)
108.6s 289 (BN_x_init): BatchNorm2d(128, eps=1e-05, momentum=0.1, affine=True, track_running_stats=True)
108.6s 290 (GRCL): Sequential(
108.6s 291 (0): GRCL_unit(
108.6s 292 (BN_gfu): BatchNorm2d(128, eps=1e-05, momentum=0.1, affine=True, track_running_stats=True)
108.6s 293 (BN_grx): BatchNorm2d(128, eps=1e-05, momentum=0.1, affine=True, track_running_stats=True)
108.6s 294 (BN_fu): BatchNorm2d(128, eps=1e-05, momentum=0.1, affine=True, track_running_stats=True)
108.6s 295 (BN_rx): BatchNorm2d(128, eps=1e-05, momentum=0.1, affine=True, track_running_stats=True)
108.6s 296 (BN_Gx): BatchNorm2d(128, eps=1e-05, momentum=0.1, affine=True, track_running_stats=True)
108.6s 297 )
108.6s 298 (1): GRCL_unit(
108.6s 299 (BN_gfu): BatchNorm2d(128, eps=1e-05, momentum=0.1, affine=True, track_running_stats=True)
108.6s 300 (BN_grx): BatchNorm2d(128, eps=1e-05, momentum=0.1, affine=True, track_running_stats=True)
108.6s 301 (BN_fu): BatchNorm2d(128, eps=1e-05, momentum=0.1, affine=True, track_running_stats=True)
108.6s 302 (BN_rx): BatchNorm2d(128, eps=1e-05, momentum=0.1, affine=True, track_running_stats=True)
108.6s 303 (BN_Gx): BatchNorm2d(128, eps=1e-05, momentum=0.1, affine=True, track_running_stats=True)
108.6s 304 )
108.6s 305 (2): GRCL_unit(
108.6s 306 (BN_gfu): BatchNorm2d(128, eps=1e-05, momentum=0.1, affine=True, track_running_stats=True)
108.6s 307 (BN_grx): BatchNorm2d(128, eps=1e-05, momentum=0.1, affine=True, track_running_stats=True)
108.6s 308 (BN_fu): BatchNorm2d(128, eps=1e-05, momentum=0.1, affine=True, track_running_stats=True)
108.6s 309 (BN_rx): BatchNorm2d(128, eps=1e-05, momentum=0.1, affine=True, track_running_stats=True)
108.6s 310 (BN_Gx): BatchNorm2d(128, eps=1e-05, momentum=0.1, affine=True, track_running_stats=True)
108.6s 311 )
108.6s 312 (3): GRCL_unit(
108.6s 313 (BN_gfu): BatchNorm2d(128, eps=1e-05, momentum=0.1, affine=True, track_running_stats=True)
108.6s 314 (BN_grx): BatchNorm2d(128, eps=1e-05, momentum=0.1, affine=True, track_running_stats=True)
108.6s 315 (BN_fu): BatchNorm2d(128, eps=1e-05, momentum=0.1, affine=True, track_running_stats=True)
108.6s 316 (BN_rx): BatchNorm2d(128, eps=1e-05, momentum=0.1, affine=True, track_running_stats=True)
108.6s 317 (BN_Gx): BatchNorm2d(128, eps=1e-05, momentum=0.1, affine=True, track_running_stats=True)
108.6s 318 )
108.6s 319 (4): GRCL_unit(
108.6s 320 (BN_gfu): BatchNorm2d(128, eps=1e-05, momentum=0.1, affine=True, track_running_stats=True)
108.6s 321 (BN_grx): BatchNorm2d(128, eps=1e-05, momentum=0.1, affine=True, track_running_stats=True)
108.6s 322 (BN_fu): BatchNorm2d(128, eps=1e-05, momentum=0.1, affine=True, track_running_stats=True)
108.6s 323 (BN_rx): BatchNorm2d(128, eps=1e-05, momentum=0.1, affine=True, track_running_stats=True)
108.6s 324 (BN_Gx): BatchNorm2d(128, eps=1e-05, momentum=0.1, affine=True, track_running_stats=True)
108.6s 325 )
108.6s 326 )
108.6s 327 )
108.6s 328 (6): MaxPool2d(kernel_size=2, stride=(2, 1), padding=(0, 1), dilation=1, ceil_mode=False)
108.6s 329 (7): GRCL(
108.6s 330 (wgf_u): Conv2d(128, 256, kernel_size=(1, 1), stride=(1, 1), bias=False)
108.6s 331 (wgr_x): Conv2d(256, 256, kernel_size=(1, 1), stride=(1, 1), bias=False)
108.6s 332 (wf_u): Conv2d(128, 256, kernel_size=(3, 3), stride=(1, 1), padding=(1, 1), bias=False)
108.6s 333 (wr_x): Conv2d(256, 256, kernel_size=(3, 3), stride=(1, 1), padding=(1, 1), bias=False)
108.6s 334 (BN_x_init): BatchNorm2d(256, eps=1e-05, momentum=0.1, affine=True, track_running_stats=True)
108.6s 335 (GRCL): Sequential(
108.6s 336 (0): GRCL_unit(
108.6s 337 (BN_gfu): BatchNorm2d(256, eps=1e-05, momentum=0.1, affine=True, track_running_stats=True)
108.6s 338 (BN_grx): BatchNorm2d(256, eps=1e-05, momentum=0.1, affine=True, track_running_stats=True)
108.6s 339 (BN_fu): BatchNorm2d(256, eps=1e-05, momentum=0.1, affine=True, track_running_stats=True)
108.6s 340 (BN_rx): BatchNorm2d(256, eps=1e-05, momentum=0.1, affine=True, track_running_stats=True)
108.6s 341 (BN_Gx): BatchNorm2d(256, eps=1e-05, momentum=0.1, affine=True, track_running_stats=True)
108.6s 342 )
108.6s 343 (1): GRCL_unit(
108.6s 344 (BN_gfu): BatchNorm2d(256, eps=1e-05, momentum=0.1, affine=True, track_running_stats=True)
108.6s 345 (BN_grx): BatchNorm2d(256, eps=1e-05, momentum=0.1, affine=True, track_running_stats=True)
108.6s 346 (BN_fu): BatchNorm2d(256, eps=1e-05, momentum=0.1, affine=True, track_running_stats=True)
108.6s 347 (BN_rx): BatchNorm2d(256, eps=1e-05, momentum=0.1, affine=True, track_running_stats=True)
108.6s 348 (BN_Gx): BatchNorm2d(256, eps=1e-05, momentum=0.1, affine=True, track_running_stats=True)
108.6s 349 )
108.6s 350 (2): GRCL_unit(
108.6s 351 (BN_gfu): BatchNorm2d(256, eps=1e-05, momentum=0.1, affine=True, track_running_stats=True)
108.6s 352 (BN_grx): BatchNorm2d(256, eps=1e-05, momentum=0.1, affine=True, track_running_stats=True)
108.6s 353 (BN_fu): BatchNorm2d(256, eps=1e-05, momentum=0.1, affine=True, track_running_stats=True)
108.6s 354 (BN_rx): BatchNorm2d(256, eps=1e-05, momentum=0.1, affine=True, track_running_stats=True)
108.6s 355 (BN_Gx): BatchNorm2d(256, eps=1e-05, momentum=0.1, affine=True, track_running_stats=True)
108.6s 356 )
108.6s 357 (3): GRCL_unit(
108.6s 358 (BN_gfu): BatchNorm2d(256, eps=1e-05, momentum=0.1, affine=True, track_running_stats=True)
108.6s 359 (BN_grx): BatchNorm2d(256, eps=1e-05, momentum=0.1, affine=True, track_running_stats=True)
108.6s 360 (BN_fu): BatchNorm2d(256, eps=1e-05, momentum=0.1, affine=True, track_running_stats=True)
108.6s 361 (BN_rx): BatchNorm2d(256, eps=1e-05, momentum=0.1, affine=True, track_running_stats=True)
108.6s 362 (BN_Gx): BatchNorm2d(256, eps=1e-05, momentum=0.1, affine=True, track_running_stats=True)
108.6s 363 )
108.6s 364 (4): GRCL_unit(
108.6s 365 (BN_gfu): BatchNorm2d(256, eps=1e-05, momentum=0.1, affine=True, track_running_stats=True)
108.6s 366 (BN_grx): BatchNorm2d(256, eps=1e-05, momentum=0.1, affine=True, track_running_stats=True)
108.6s 367 (BN_fu): BatchNorm2d(256, eps=1e-05, momentum=0.1, affine=True, track_running_stats=True)
108.6s 368 (BN_rx): BatchNorm2d(256, eps=1e-05, momentum=0.1, affine=True, track_running_stats=True)
108.6s 369 (BN_Gx): BatchNorm2d(256, eps=1e-05, momentum=0.1, affine=True, track_running_stats=True)
108.6s 370 )
108.6s 371 )
108.6s 372 )
108.6s 373 (8): MaxPool2d(kernel_size=2, stride=(2, 1), padding=(0, 1), dilation=1, ceil_mode=False)
108.6s 374 (9): Conv2d(256, 512, kernel_size=(2, 2), stride=(1, 1), bias=False)
108.6s 375 (10): BatchNorm2d(512, eps=1e-05, momentum=0.1, affine=True, track_running_stats=True)
108.6s 376 (11): ReLU(inplace=True)
108.6s 377 )
108.6s 378 )
108.6s 379 (AdaptiveAvgPool): AdaptiveAvgPool2d(output_size=(None, 1))
108.6s 380 (SequenceModeling): Sequential(
108.6s 381 (0): BidirectionalLSTM(
108.6s 382 (rnn): LSTM(512, 256, batch_first=True, bidirectional=True)
108.6s 383 (linear): Linear(in_features=512, out_features=256, bias=True)
108.6s 384 )
108.6s 385 (1): BidirectionalLSTM(
108.6s 386 (rnn): LSTM(256, 256, batch_first=True, bidirectional=True)
108.6s 387 (linear): Linear(in_features=512, out_features=256, bias=True)
108.6s 388 )
108.6s 389 )
108.6s 390 (Prediction): Attention(
108.6s 391 (attention_cell): AttentionCell(
108.6s 392 (i2h): Linear(in_features=256, out_features=256, bias=False)
108.6s 393 (h2h): Linear(in_features=256, out_features=256, bias=True)
108.6s 394 (score): Linear(in_features=256, out_features=1, bias=False)
108.6s 395 (rnn): LSTMCell(294, 256)
108.6s 396 )
108.6s 397 (generator): Linear(in_features=256, out_features=38, bias=True)
108.6s 398 )
108.6s 399 )
108.6s 400 )
108.6s 401 Trainable params num :  7151246
108.6s 402 Optimizer:
108.6s 403 Adadelta (
108.6s 404 Parameter Group 0
108.6s 405 capturable: False
108.6s 406 differentiable: False
108.6s 407 eps: 1e-08
108.6s 408 foreach: None
108.6s 409 lr: 1
108.6s 410 maximize: False
108.6s 411 rho: 0.95
108.6s 412 weight_decay: 0
…
