…
99.6s 204 /usr/local/lib/python3.11/dist-packages/torchvision/models/_utils.py:223: UserWarning: Arguments other than a weight enum or `None` for 'weights' are deprecated since 0.13 and may be removed in the future. The current behavior is equivalent to passing `weights=None`.
99.6s 205 warnings.warn(msg)
100.8s 206 model input parameters 128 128 20 1 768 256 38 25 TPS ViT BiLSTM Attn
100.9s 207 Skip Transformation.LocalizationNetwork.localization_fc2.weight as it is already initialized
100.9s 208 Skip Transformation.LocalizationNetwork.localization_fc2.bias as it is already initialized
101.7s 209 Model:
101.7s 210 DataParallel(
101.7s 211 (module): Model(
101.7s 212 (Transformation): TPS_SpatialTransformerNetwork(
101.7s 213 (LocalizationNetwork): LocalizationNetwork(
101.7s 214 (conv): Sequential(
101.7s 215 (0): Conv2d(1, 64, kernel_size=(3, 3), stride=(1, 1), padding=(1, 1), bias=False)
101.7s 216 (1): BatchNorm2d(64, eps=1e-05, momentum=0.1, affine=True, track_running_stats=True)
101.7s 217 (2): ReLU(inplace=True)
101.7s 218 (3): MaxPool2d(kernel_size=2, stride=2, padding=0, dilation=1, ceil_mode=False)
101.7s 219 (4): Conv2d(64, 128, kernel_size=(3, 3), stride=(1, 1), padding=(1, 1), bias=False)
101.7s 220 (5): BatchNorm2d(128, eps=1e-05, momentum=0.1, affine=True, track_running_stats=True)
101.7s 221 (6): ReLU(inplace=True)
101.7s 222 (7): MaxPool2d(kernel_size=2, stride=2, padding=0, dilation=1, ceil_mode=False)
101.7s 223 (8): Conv2d(128, 256, kernel_size=(3, 3), stride=(1, 1), padding=(1, 1), bias=False)
101.7s 224 (9): BatchNorm2d(256, eps=1e-05, momentum=0.1, affine=True, track_running_stats=True)
101.7s 225 (10): ReLU(inplace=True)
101.7s 226 (11): MaxPool2d(kernel_size=2, stride=2, padding=0, dilation=1, ceil_mode=False)
101.7s 227 (12): Conv2d(256, 512, kernel_size=(3, 3), stride=(1, 1), padding=(1, 1), bias=False)
101.7s 228 (13): BatchNorm2d(512, eps=1e-05, momentum=0.1, affine=True, track_running_stats=True)
101.7s 229 (14): ReLU(inplace=True)
101.7s 230 (15): AdaptiveAvgPool2d(output_size=1)
101.7s 231 )
101.7s 232 (localization_fc1): Sequential(
101.7s 233 (0): Linear(in_features=512, out_features=256, bias=True)
101.7s 234 (1): ReLU(inplace=True)
101.7s 235 )
101.7s 236 (localization_fc2): Linear(in_features=256, out_features=40, bias=True)
101.7s 237 )
101.7s 238 (GridGenerator): GridGenerator()
101.7s 239 )
101.7s 240 (FeatureExtraction): ViT_FeatureExtractor(
101.7s 241 (vit): VisionTransformer(
101.7s 242 (conv_proj): Conv2d(1, 768, kernel_size=(16, 16), stride=(16, 16))
101.7s 243 (encoder): Encoder(
101.7s 244 (dropout): Dropout(p=0.0, inplace=False)
101.7s 245 (layers): Sequential(
101.7s 246 (encoder_layer_0): EncoderBlock(
101.7s 247 (ln_1): LayerNorm((768,), eps=1e-06, elementwise_affine=True)
101.7s 248 (self_attention): MultiheadAttention(
101.7s 249 (out_proj): NonDynamicallyQuantizableLinear(in_features=768, out_features=768, bias=True)
101.7s 250 )
101.7s 251 (dropout): Dropout(p=0.0, inplace=False)
101.7s 252 (ln_2): LayerNorm((768,), eps=1e-06, elementwise_affine=True)
101.7s 253 (mlp): MLPBlock(
101.7s 254 (0): Linear(in_features=768, out_features=3072, bias=True)
101.7s 255 (1): GELU(approximate='none')
101.7s 256 (2): Dropout(p=0.0, inplace=False)
101.7s 257 (3): Linear(in_features=3072, out_features=768, bias=True)
101.7s 258 (4): Dropout(p=0.0, inplace=False)
101.7s 259 )
101.7s 260 )
101.7s 261 (encoder_layer_1): EncoderBlock(
101.7s 262 (ln_1): LayerNorm((768,), eps=1e-06, elementwise_affine=True)
101.7s 263 (self_attention): MultiheadAttention(
101.7s 264 (out_proj): NonDynamicallyQuantizableLinear(in_features=768, out_features=768, bias=True)
101.7s 265 )
101.7s 266 (dropout): Dropout(p=0.0, inplace=False)
101.7s 267 (ln_2): LayerNorm((768,), eps=1e-06, elementwise_affine=True)
101.7s 268 (mlp): MLPBlock(
101.7s 269 (0): Linear(in_features=768, out_features=3072, bias=True)
101.7s 270 (1): GELU(approximate='none')
101.7s 271 (2): Dropout(p=0.0, inplace=False)
101.7s 272 (3): Linear(in_features=3072, out_features=768, bias=True)
101.7s 273 (4): Dropout(p=0.0, inplace=False)
101.7s 274 )
101.7s 275 )
101.7s 276 (encoder_layer_2): EncoderBlock(
101.7s 277 (ln_1): LayerNorm((768,), eps=1e-06, elementwise_affine=True)
101.7s 278 (self_attention): MultiheadAttention(
101.7s 279 (out_proj): NonDynamicallyQuantizableLinear(in_features=768, out_features=768, bias=True)
101.7s 280 )
101.7s 281 (dropout): Dropout(p=0.0, inplace=False)
101.7s 282 (ln_2): LayerNorm((768,), eps=1e-06, elementwise_affine=True)
101.7s 283 (mlp): MLPBlock(
101.7s 284 (0): Linear(in_features=768, out_features=3072, bias=True)
101.7s 285 (1): GELU(approximate='none')
101.7s 286 (2): Dropout(p=0.0, inplace=False)
101.7s 287 (3): Linear(in_features=3072, out_features=768, bias=True)
101.7s 288 (4): Dropout(p=0.0, inplace=False)
101.7s 289 )
101.7s 290 )
101.7s 291 (encoder_layer_3): EncoderBlock(
101.7s 292 (ln_1): LayerNorm((768,), eps=1e-06, elementwise_affine=True)
101.7s 293 (self_attention): MultiheadAttention(
101.7s 294 (out_proj): NonDynamicallyQuantizableLinear(in_features=768, out_features=768, bias=True)
101.7s 295 )
101.7s 296 (dropout): Dropout(p=0.0, inplace=False)
101.7s 297 (ln_2): LayerNorm((768,), eps=1e-06, elementwise_affine=True)
101.7s 298 (mlp): MLPBlock(
101.7s 299 (0): Linear(in_features=768, out_features=3072, bias=True)
101.7s 300 (1): GELU(approximate='none')
101.7s 301 (2): Dropout(p=0.0, inplace=False)
101.7s 302 (3): Linear(in_features=3072, out_features=768, bias=True)
101.7s 303 (4): Dropout(p=0.0, inplace=False)
101.7s 304 )
101.7s 305 )
101.7s 306 (encoder_layer_4): EncoderBlock(
101.7s 307 (ln_1): LayerNorm((768,), eps=1e-06, elementwise_affine=True)
101.7s 308 (self_attention): MultiheadAttention(
101.7s 309 (out_proj): NonDynamicallyQuantizableLinear(in_features=768, out_features=768, bias=True)
101.7s 310 )
101.7s 311 (dropout): Dropout(p=0.0, inplace=False)
101.7s 312 (ln_2): LayerNorm((768,), eps=1e-06, elementwise_affine=True)
101.7s 313 (mlp): MLPBlock(
101.7s 314 (0): Linear(in_features=768, out_features=3072, bias=True)
101.7s 315 (1): GELU(approximate='none')
101.7s 316 (2): Dropout(p=0.0, inplace=False)
101.7s 317 (3): Linear(in_features=3072, out_features=768, bias=True)
101.7s 318 (4): Dropout(p=0.0, inplace=False)
101.7s 319 )
101.7s 320 )
101.7s 321 (encoder_layer_5): EncoderBlock(
101.7s 322 (ln_1): LayerNorm((768,), eps=1e-06, elementwise_affine=True)
101.7s 323 (self_attention): MultiheadAttention(
101.7s 324 (out_proj): NonDynamicallyQuantizableLinear(in_features=768, out_features=768, bias=True)
101.7s 325 )
101.7s 326 (dropout): Dropout(p=0.0, inplace=False)
101.7s 327 (ln_2): LayerNorm((768,), eps=1e-06, elementwise_affine=True)
101.7s 328 (mlp): MLPBlock(
101.7s 329 (0): Linear(in_features=768, out_features=3072, bias=True)
101.7s 330 (1): GELU(approximate='none')
101.7s 331 (2): Dropout(p=0.0, inplace=False)
101.7s 332 (3): Linear(in_features=3072, out_features=768, bias=True)
101.7s 333 (4): Dropout(p=0.0, inplace=False)
101.7s 334 )
101.7s 335 )
101.7s 336 (encoder_layer_6): EncoderBlock(
101.7s 337 (ln_1): LayerNorm((768,), eps=1e-06, elementwise_affine=True)
101.7s 338 (self_attention): MultiheadAttention(
101.7s 339 (out_proj): NonDynamicallyQuantizableLinear(in_features=768, out_features=768, bias=True)
101.7s 340 )
101.7s 341 (dropout): Dropout(p=0.0, inplace=False)
101.7s 342 (ln_2): LayerNorm((768,), eps=1e-06, elementwise_affine=True)
101.7s 343 (mlp): MLPBlock(
101.7s 344 (0): Linear(in_features=768, out_features=3072, bias=True)
101.7s 345 (1): GELU(approximate='none')
101.7s 346 (2): Dropout(p=0.0, inplace=False)
101.7s 347 (3): Linear(in_features=3072, out_features=768, bias=True)
101.7s 348 (4): Dropout(p=0.0, inplace=False)
101.7s 349 )
101.7s 350 )
101.7s 351 (encoder_layer_7): EncoderBlock(
101.7s 352 (ln_1): LayerNorm((768,), eps=1e-06, elementwise_affine=True)
101.7s 353 (self_attention): MultiheadAttention(
101.7s 354 (out_proj): NonDynamicallyQuantizableLinear(in_features=768, out_features=768, bias=True)
101.7s 355 )
101.7s 356 (dropout): Dropout(p=0.0, inplace=False)
101.7s 357 (ln_2): LayerNorm((768,), eps=1e-06, elementwise_affine=True)
101.7s 358 (mlp): MLPBlock(
101.7s 359 (0): Linear(in_features=768, out_features=3072, bias=True)
101.7s 360 (1): GELU(approximate='none')
101.7s 361 (2): Dropout(p=0.0, inplace=False)
101.7s 362 (3): Linear(in_features=3072, out_features=768, bias=True)
101.7s 363 (4): Dropout(p=0.0, inplace=False)
101.7s 364 )
101.7s 365 )
101.7s 366 (encoder_layer_8): EncoderBlock(
101.7s 367 (ln_1): LayerNorm((768,), eps=1e-06, elementwise_affine=True)
101.7s 368 (self_attention): MultiheadAttention(
101.7s 369 (out_proj): NonDynamicallyQuantizableLinear(in_features=768, out_features=768, bias=True)
101.7s 370 )
101.7s 371 (dropout): Dropout(p=0.0, inplace=False)
101.7s 372 (ln_2): LayerNorm((768,), eps=1e-06, elementwise_affine=True)
101.7s 373 (mlp): MLPBlock(
101.7s 374 (0): Linear(in_features=768, out_features=3072, bias=True)
101.7s 375 (1): GELU(approximate='none')
101.7s 376 (2): Dropout(p=0.0, inplace=False)
101.7s 377 (3): Linear(in_features=3072, out_features=768, bias=True)
101.7s 378 (4): Dropout(p=0.0, inplace=False)
101.7s 379 )
101.7s 380 )
101.7s 381 (encoder_layer_9): EncoderBlock(
101.7s 382 (ln_1): LayerNorm((768,), eps=1e-06, elementwise_affine=True)
101.7s 383 (self_attention): MultiheadAttention(
101.7s 384 (out_proj): NonDynamicallyQuantizableLinear(in_features=768, out_features=768, bias=True)
101.7s 385 )
101.7s 386 (dropout): Dropout(p=0.0, inplace=False)
101.7s 387 (ln_2): LayerNorm((768,), eps=1e-06, elementwise_affine=True)
101.7s 388 (mlp): MLPBlock(
101.7s 389 (0): Linear(in_features=768, out_features=3072, bias=True)
101.7s 390 (1): GELU(approximate='none')
101.7s 391 (2): Dropout(p=0.0, inplace=False)
101.7s 392 (3): Linear(in_features=3072, out_features=768, bias=True)
101.7s 393 (4): Dropout(p=0.0, inplace=False)
101.7s 394 )
101.7s 395 )
101.7s 396 (encoder_layer_10): EncoderBlock(
101.7s 397 (ln_1): LayerNorm((768,), eps=1e-06, elementwise_affine=True)
101.7s 398 (self_attention): MultiheadAttention(
101.7s 399 (out_proj): NonDynamicallyQuantizableLinear(in_features=768, out_features=768, bias=True)
101.7s 400 )
101.7s 401 (dropout): Dropout(p=0.0, inplace=False)
101.7s 402 (ln_2): LayerNorm((768,), eps=1e-06, elementwise_affine=True)
101.7s 403 (mlp): MLPBlock(
101.7s 404 (0): Linear(in_features=768, out_features=3072, bias=True)
101.7s 405 (1): GELU(approximate='none')
101.7s 406 (2): Dropout(p=0.0, inplace=False)
101.7s 407 (3): Linear(in_features=3072, out_features=768, bias=True)
101.7s 408 (4): Dropout(p=0.0, inplace=False)
101.7s 409 )
101.7s 410 )
101.7s 411 (encoder_layer_11): EncoderBlock(
101.7s 412 (ln_1): LayerNorm((768,), eps=1e-06, elementwise_affine=True)
101.7s 413 (self_attention): MultiheadAttention(
101.7s 414 (out_proj): NonDynamicallyQuantizableLinear(in_features=768, out_features=768, bias=True)
101.7s 415 )
101.7s 416 (dropout): Dropout(p=0.0, inplace=False)
101.7s 417 (ln_2): LayerNorm((768,), eps=1e-06, elementwise_affine=True)
101.7s 418 (mlp): MLPBlock(
101.7s 419 (0): Linear(in_features=768, out_features=3072, bias=True)
101.7s 420 (1): GELU(approximate='none')
101.7s 421 (2): Dropout(p=0.0, inplace=False)
101.7s 422 (3): Linear(in_features=3072, out_features=768, bias=True)
101.7s 423 (4): Dropout(p=0.0, inplace=False)
101.7s 424 )
101.7s 425 )
101.7s 426 )
101.7s 427 (ln): LayerNorm((768,), eps=1e-06, elementwise_affine=True)
101.7s 428 )
101.7s 429 (heads): Identity()
101.7s 430 )
101.7s 431 (dropout): Dropout(p=0.4, inplace=False)
101.7s 432 (projector): Linear(in_features=768, out_features=768, bias=True)
101.7s 433 )
101.7s 434 (AdaptiveAvgPool): AdaptiveAvgPool2d(output_size=(None, 1))
101.7s 435 (SequenceModeling): Sequential(
101.7s 436 (0): BidirectionalLSTM(
101.7s 437 (rnn): LSTM(768, 256, batch_first=True, bidirectional=True)
101.7s 438 (linear): Linear(in_features=512, out_features=256, bias=True)
101.7s 439 )
101.7s 440 (1): BidirectionalLSTM(
101.7s 441 (rnn): LSTM(256, 256, batch_first=True, bidirectional=True)
101.7s 442 (linear): Linear(in_features=512, out_features=256, bias=True)
101.7s 443 )
101.7s 444 )
101.7s 445 (Prediction): Attention(
101.7s 446 (attention_cell): AttentionCell(
101.7s 447 (i2h): Linear(in_features=256, out_features=256, bias=False)
101.7s 448 (h2h): Linear(in_features=256, out_features=256, bias=True)
101.7s 449 (score): Linear(in_features=256, out_features=1, bias=False)
101.7s 450 (rnn): LSTMCell(294, 256)
101.7s 451 )
101.7s 452 (generator): Linear(in_features=256, out_features=38, bias=True)
101.7s 453 )
101.7s 454 )
101.7s 455 )
101.7s 456 Trainable params num :  91710222
101.7s 457 Optimizer:
101.7s 458 Adadelta (
101.7s 459 Parameter Group 0
101.7s 460 capturable: False
101.7s 461 differentiable: False
101.7s 462 eps: 1e-08
101.7s 463 foreach: None
101.7s 464 lr: 0.1
101.7s 465 maximize: False
101.7s 466 rho: 0.95
101.7s 467 weight_decay: 0
…
